…
• Segment 1 contains businesses with both financials and trade data . 
• Segment 2 contains businesses with no financials data, but some trade data . 
• Segment 3 contains businesses with neither financials nor trade data . 
 
Table 3: XGBoost final parameters  
 
Parameters  Segment 1  Segment 2  Segment 3  
Column Sample 
by Sample  0.9 0.8 0.7  
 
 7 Column Sample 
by Tree  0.8 0.5 0.8 
Learning Rate  0.05  0.075  0.1 
Max Depth  4 5 5 
Min Child Weight  9 8 5 
Number of 
Estimators  400 600 400 
Sub Sample  0.6 0.8 0.9 
 
 
Table 4: Neural network model summary  
 
Layer (type)  Output Shape  Param #  
dense_3 (Dense)  (None, 79) 20,145  
dropout_2 (Dropout)  (None, 79)  0 
dense_4 (Dense)  (None, 15)  1,200  
dropout_3 (Dropout)  (None, 15)  0 
dense_5 (Dense)  (None, 1)  16 
Total params: 21,361    
Trainable params: 21,361    
Non-trainable params: 0    
   
 